model/keypoint_classifier/keypoint_classifier-1.tflite (tflite, 6720 bytes, 6 tensors)

sequential/dense/BiasAdd/ReadVariableOp f4 [20]
0	0xbf514af6	-0.81755006
1	0xbf0c3916	-0.54774606
2	0xbea201ed	-0.31642094
3	0xbf863d35	-1.0487429
4	0xbf8108c7	-1.0080804
5	0xbf25cc2d	-0.6476467
6	0xbecbb01c	-0.39782798
7	0xbf73f658	-0.95297766
8	0xbed43307	-0.4144518
9	0xbf82d938	-1.022254
10	0xbe6f3d79	-0.23363294
11	0xbf19c720	-0.60069466
12	0xbf3309f3	-0.69937056
13	0xbece3de2	-0.40281588
14	0xbf25540b	-0.64581364
15	0xbf3422d4	-0.70365644
16	0xbee7b105	-0.45252243
17	0xbee899fa	-0.45429975
18	0xbf483358	-0.78203344
19	0xbf25e37a	-0.64800227

sequential/dense_2/BiasAdd/ReadVariableOp f4 [8]
0	0xbe8f1ac6	-0.27950114
1	0xbea876a4	-0.32903016
2	0x3e38751c	0.18013424
3	0x3e1dfea9	0.15429176
4	0xbf5f81c0	-0.8730736
5	0x3f385ff7	0.7202143
6	0x3eacbdbe	0.33738512
7	0xbdb8cadd	-0.09023068

sequential/dense_1/BiasAdd/ReadVariableOp f4 [10]
0	0x3ebfd8ab	0.37469992
1	0x3f6c4a65	0.9230102
2	0x3edf1e00	0.43577576
3	0x3f6ac48c	0.91706157
4	0x3ea20f94	0.3165251
5	0x3d9f7df4	0.077876955
6	0x3ecafaf1	0.39644578
7	0x3e7de563	0.24794535
8	0xbf4356c7	-0.76304287
9	0xbf23d8b8	-0.6400256

sequential/dense/MatMul f4 [20, 42]
0	0x3d35ba38	0.044367045
1	0xbd119cb0	-0.03554982
2	0x3ec81d4f	0.3908486
3	0x3e6e47f5	0.23269637
4	0x3e5a6522	0.21327642
5	0x3d9cf09e	0.076630816
6	0x3d9ac725	0.07557515
7	0xbeb92d9f	-0.3616762
8	0x3dd69701	0.104780205
9	0xbe399746	-0.18124112
10	0x3c3a8645	0.011384551
11	0xbd80c513	-0.06287589
12	0x3d1f6f64	0.03892459
13	0xbc5dd50d	-0.013539565
14	0xbcba9a0e	-0.022778537
15	0x3da12598	0.078684986
16	0xbd4e45a4	-0.050359383
17	0x3da48714	0.080335766
18	0x3d7bee41	0.061506514
19	0xbd225499	-0.03963146
20	0x3cd8210e	0.02638295
21	0xbd9ab167	-0.07553368
22	0x3e4b00bd	0.198245
23	0xbeb52c84	-0.35385525
24	0x3ecf28ec	0.40460908
25	0xbe6a691c	-0.22891659
26	0x3d8dae82	0.0691805
27	0x3c1b2e00	0.0094714165
28	0x3cb5d73f	0.022197364
29	0xbd9f0dad	-0.0776628
30	0x3e9e06db	0.30864605
31	0xbe9abb0e	-0.30220836
32	0x3f308f4a	0.6896864
33	0xbef744d7	-0.48294708
34	0xbd26f6d3	-0.040762734
35	0x3d12d048	0.035843164
36	0xbd7fa911	-0.062417094
37	0x3e1d6635	0.1537102
38	0xbe525e03	-0.20543675
39	0x3e691d44	0.2276507
40	0xbecdfb3e	-0.40230745
41	0x3e64d911	0.2234843
42	0xbb083780	-0.0020785034
43	0x3e998c6e	0.29989952
44	0xbe602268	-0.21888125
45	0xbf7c1bb7	-0.9847979
46	0xbe6636be	-0.2248182
47	0xbf3333a0	-0.7000065
48	0xbef31f67	-0.47484896
49	0xbed5a85e	-0.41730016
50	0xbfa8c8ca	-1.3186276
51	0xbea349b9	-0.31892183
52	0xbe80d7a3	-0.25164518
53	0x3df64460	0.1202476
54	0xbcea0b6e	-0.028569903
55	0xbc309bf2	-0.010779368
56	0x3dc2e819	0.09516925
57	0xbcbda9e4	-0.0231523
58	0x3e166658	0.14687479
59	0x3b62f016	0.0034627966
60	0xbea4b97f	-0.32172772
61	0x3e0f21f1	0.13977791
62	0x3b889cfc	0.0041691046
63	0xb9c3ac4c	-0.0003732167
64	0x3e3c5e18	0.18395269
65	0x3da0caf9	0.07851214
66	0x3e2b8175	0.16748603
67	0x3e16ec61	0.14738609
68	0xbdcc67d7	-0.099807434
69	0x3e26bf20	0.16283846
70	0x3dc8cf12	0.098051205
71	0xb9b76367	-0.0003497854
72	0x3e9f12c8	0.31069016
73	0x3da238b2	0.0792097
74	0x3ea9f606	0.33195513
75	0x3e039521	0.12849857
76	0x3e2a2d7f	0.16618918
77	0x3e1dc666	0.15407714
78	0x3e9db4e3	0.30802068
79	0x3db0d2bd	0.08633945
80	0x3f1e379f	0.6180362
81	0x3deece29	0.11660416
82	0x3f514d9d	0.81759053
83	0x3e5bc407	0.21461497
84	0x3de3fe9c	0.11132547
85	0x3dcce930	0.100054145
86	0x3d06be0a	0.03289608
87	0x3f0e04b4	0.55475926
88	0xbdd2afab	-0.10287412
89	0x3e2184bb	0.15773289
90	0xbe329afb	-0.17441933
91	0xbd9cf8e5	-0.0766466
92	0xbe8ffb0c	-0.2812122
93	0xbddfd956	-0.109301254
94	0x3d55671d	0.05210029
95	0x3e381d01	0.17979814
96	0x3d1af6e7	0.03783312
97	0x3db8a827	0.090164475
98	0xbb0ab7aa	-0.0021166601
99	0x3cafa81e	0.02144247
100	0xbbaedcab	-0.0053363643
101	0xbd1d4b8b	-0.03840212
102	0x3d830f95	0.063994564
103	0x3e0f008e	0.13965055
104	0x3c0e210c	0.008674871
105	0x3c90abf2	0.017660115
106	0x3e2eaa1e	0.17057082
107	0xbd7ba43f	-0.061435934
108	0x3ee05916	0.43817967
109	0xbf8d34ab	-1.1031698
110	0xbd1a3446	-0.037647508
111	0x3db69270	0.089146495
112	0xbdb7ba1b	-0.08971044
113	0xbccd8626	-0.025088381
114	0x3e155730	0.1458404
115	0x3e1951be	0.14972588
116	0x3f008a8c	0.50211406
117	0x3ec8c94f	0.39216086
118	0xbe091cdc	-0.13389915
119	0xbc5b278a	-0.013376126
120	0xbe17f086	-0.14837846
121	0xbcff2407	-0.031145109
122	0xbdacd36e	-0.084387645
123	0x3df0d294	0.117589146
124	0x3df75fa2	0.120787874
125	0x3e914f51	0.28380826
126	0x3e1da1fe	0.15393826
127	0xbc6f9b80	-0.014624476
128	0xbf55f47e	-0.8357619
129	0xbf908f19	-1.129367
130	0xbe8dafbe	-0.27673143
131	0xbef80a33	-0.4844528
132	0xbeb43b59	-0.3520153
133	0xbddfec19	-0.10933704
134	0xbea6977f	-0.32537457
135	0xbec2129b	-0.3790482
136	0x3e086492	0.13319615
137	0x3da92475	0.08258907
138	0xbdcab92d	-0.09898601
139	0x3d5b420b	0.05352978
140	0xbca9d36e	-0.0207307
141	0x3e850da6	0.25986975
142	0x3d7de923	0.061989915
143	0x3e2b1c20	0.16709948
144	0x3d651f0e	0.05593782
145	0x3d260a65	0.040537257
146	0x3d9bf966	0.07615928
147	0xbdfc1cd5	-0.12310187
148	0xbdf0bd6f	-0.117548816
149	0xbd8ee40a	-0.06977089
150	0xbe317c88	-0.17332661
151	0x3ca8a9fc	0.020588867
152	0xbe084618	-0.13307989
153	0x3b2848f7	0.0025678256
154	0x3e8aeae1	0.27132323
155	0xbe34dec0	-0.17663097
156	0x3db8b7c0	0.090194225
157	0xbe3bfbd6	-0.18357787
158	0xbd1e18f7	-0.038598027
159	0x3cc390e1	0.023872795
160	0xbdb735ab	-0.08945783
161	0xbdad4993	-0.08461299
162	0x3e4886ef	0.19582723
163	0xbe951d01	-0.2912369
164	0x3de24bf6	0.11049645
165	0xbe8bae02	-0.27281195
166	0xbd4f6446	-0.050632738
167	0xbc53082c	-0.012880366
168	0x3d0c23f0	0.03421396
169	0xbe4f22aa	-0.20228067
170	0x3f50a4ea	0.8150164
171	0xbfee766e	-1.8629892
172	0x3f4158ae	0.7552594
173	0xbf9b82b8	-1.2149267
174	0x3f50e8b0	0.8160505
175	0xbf4860e0	-0.7827282
176	0x3f60809d	0.8769625
177	0xbf1c3d31	-0.6103087
178	0x3ece6034	0.40307772
179	0xbeccd7dd	-0.4000844
180	0x3df0a991	0.11751092
181	0xbe512baf	-0.2042682
182	0xbe9cf105	-0.30652633
183	0x3db1ddeb	0.086849056
184	0xbf081d99	-0.5317016
185	0x3e20356c	0.15645379
186	0x3ec3974d	0.3820137
187	0xbe549dc9	-0.20763315
188	0x3ea46cc5	0.32114235
189	0xbdb85d88	-0.09002215
190	0xbcbd1e19	-0.02308564
191	0x3e311b39	0.17295541
192	0xbd8c81c2	-0.06860687
193	0x3e4cf537	0.20015417
194	0x3f15de93	0.58542746
195	0xbe62d614	-0.22151977
196	0x3e77695e	0.24161288
197	0xbde3a57b	-0.11115547
198	0xbd9885c2	-0.07447387
199	0x3dd6fd5d	0.10497544
200	0xbd92e6a5	-0.07172898
201	0x3d7e252e	0.062047176
202	0x3f207629	0.626803
203	0xbe481756	-0.19540152
204	0x3e1c7399	0.15278472
205	0xbe5cba38	-0.21555412
206	0xbe0a3318	-0.13496053
207	0xbe379516	-0.17927966
208	0xbded69bc	-0.11592433
209	0xbe314b62	-0.17313913
210	0xbe88a32d	-0.26686993
211	0xbe17ec7a	-0.14836302
212	0xbd37ab43	-0.044841062
213	0xbf87084b	-1.0549406
214	0x3dbec882	0.093155876
215	0xbeae930e	-0.3409657
216	0x3c53deb0	0.012931511
217	0xbe70b595	-0.23506768
218	0xbd743aec	-0.059626505
219	0xbdeadd28	-0.114679635
220	0x3f2116f5	0.62925655
221	0xbe5972da	-0.21235219
222	0x3d32753d	0.04356884
223	0xbc95a6fe	-0.018268105
224	0xbe34f9b1	-0.17673375
225	0x3e8263c1	0.2546673
226	0xbe584f30	-0.21123958
227	0x3e2e90bd	0.17047401
228	0x3f022ef1	0.50852877
229	0xbe5826ef	-0.21108602
230	0x3d794a70	0.060862005
231	0xbd41eae1	-0.04734314
232	0xbe6eb48f	-0.23311065
233	0x3e09aafd	0.13444133
234	0xbe7e47b5	-0.24832042
235	0x3e1b10ac	0.15143079
236	0x3e9cc430	0.3061843
237	0xbe8a57cf	-0.27020118
238	0x3dfd7b68	0.123770535
239	0xbe1a268c	-0.15053767
240	0xbd6a765e	-0.05724179
241	0x3d8a6f45	0.06759504
242	0xbd892048	-0.0669561
243	0x3dadb09c	0.08480951
244	0x3d9a7dd8	0.07543534
245	0xbf02460d	-0.5088814
246	0x3e13b308	0.14423764
247	0xbebc545f	-0.3678312
248	0x3d5e7a0a	0.054315604
249	0xbe3c61eb	-0.18396728
250	0x3d05fb0a	0.032710113
251	0xbd90f7f2	-0.07078542
252	0xbd9621ae	-0.07330643
253	0x3e175bce	0.14781114
254	0x3f27af79	0.65502125
255	0xbf3e8e50	-0.744359

sequential/dense_1/MatMul f4 [10, 20]
0	0xbe4b0730	-0.1982696
1	0xbe09318f	-0.13397811
2	0xbf570cce	-0.84003913
3	0x3eba1518	0.36344218
4	0x3ec2a81f	0.3801889
5	0x3f2198a3	0.6312353
6	0x3f0fce89	0.5617452
7	0x3ebf2214	0.37330687
8	0x3e65c2fc	0.22437662
9	0x3e9590f6	0.2921216
10	0x3ecc7310	0.39931536
11	0xbdfe7df1	-0.12426365
12	0xbee62dfd	-0.4495696
13	0xbfce4a5e	-1.6116445
14	0xbf796d4f	-0.97432417
15	0x3f324934	0.6964295
16	0xbf77e491	-0.9683314
17	0xbf4722a5	-0.7778724
18	0x3f60a66e	0.8775395
19	0x3eb5d41d	0.35513392
20	0x3a9680d7	0.0011482489
21	0x3f0b87ab	0.5450389
22	0xbd5538a9	-0.05205599
23	0x3efb6ebe	0.49107927
24	0xbd68699c	-0.056741342
25	0x3d277c22	0.040889867
26	0xbe8b1b0e	-0.2716908
27	0x3f47ec5d	0.78095037
28	0xbf40b72f	-0.75279516
29	0x3f0020de	0.5005015
30	0x3e82bacc	0.2553314
31	0xbe242fa1	-0.16033794
32	0x3d5f214f	0.054475125
33	0xbe869e30	-0.26292562
34	0x3d584fda	0.052810527
35	0x3f33d6c3	0.70249575
36	0xbe7d3366	-0.24726638
37	0x3e0bf645	0.13668163
38	0x3e24d3a8	0.16096365
39	0xbf6c8378	-0.92388105
40	0x3f3d99c8	0.74062777
41	0x3ec42869	0.3831208
42	0x3f764d8a	0.96212065
43	0xbee1d5f5	-0.4410855
44	0x3edcb276	0.43104905
45	0xbecbaa5b	-0.39778408
46	0x3f3c29f9	0.73501545
47	0x3eb99042	0.36242872
48	0x3f3fb357	0.74883026
49	0x3dcbf03a	0.09957929
50	0x3f23ed06	0.64033544
51	0x3f60c70c	0.8780372
52	0x3e0bc57c	0.13649553
53	0x3f7d4876	0.9893869
54	0x3ec0b117	0.3763511
55	0xbf3448c9	-0.7042356
56	0x3e33133e	0.17487809
57	0x3e8eafdb	0.27868542
58	0xbdfbc398	-0.12293166
59	0x3c6da9ef	0.014505847
60	0xbf543d6c	-0.8290622
61	0xbe287ef5	-0.1645468
62	0xbf752cb2	-0.95771325
63	0xbf261c84	-0.6488726
64	0xbdbf9c6c	-0.09356007
65	0xbe1ec645	-0.15505321
66	0x3df145e3	0.11780908
67	0x3d8930d9	0.0669877
68	0x3f7409d8	0.9532752
69	0xbdd93e36	-0.10607569
70	0x3ebd37d4	0.36956656
71	0xbf4b0c21	-0.7931538
72	0xbff106bf	-1.8830184
73	0xbfd46b90	-1.6595325
74	0xbfdea723	-1.7394756
75	0x3ea21a65	0.31660762
76	0xbf969565	-1.1764342
77	0xbff17678	-1.8864279
78	0x3d26f304	0.0407591
79	0x3e2b6276	0.16736779
80	0xbc90e17d	-0.017685646
81	0x3fdad25c	1.7095447
82	0xbe381bd6	-0.17979369
83	0x3f19b4e3	0.60041636
84	0x3f2b1426	0.6682762
85	0x3ea1b427	0.31582758
86	0x3f13f222	0.5779134
87	0x3f06346b	0.52423733
88	0xbdf677bd	-0.12034557
89	0x3fe19d1a	1.7626069
90	0x3e86491a	0.26227647
91	0x3f4823fe	0.7817992
92	0x3e92e55b	0.2869061
93	0xbcc11501	-0.023569586
94	0x3e814e1c	0.25254905
95	0x3f3753f1	0.7161246
96	0x3f052d16	0.5202192
97	0xbdba38b7	-0.09092849
98	0xbd6742f6	-0.056460343
99	0x3fc75b27	1.5574692
100	0x3e68bd94	0.22728568
101	0xbd321db8	-0.043485373
102	0xbd1f7a03	-0.03893472
103	0x3f54d55b	0.83138055
104	0xbdae086a	-0.084976986
105	0x3ecdeda5	0.4022037
106	0x3ec9b07e	0.39392465
107	0xbf91fd38	-1.1405401
108	0xbe1d5f5c	-0.15368408
109	0xbdbf4ea0	-0.093411684
110	0xbf55361f	-0.8328571
111	0x3f41ca62	0.75699437
112	0x3f870192	1.0547354
113	0x3f3cd624	0.7376425
114	0x3fa300e0	1.2734642
115	0x3e1cb010	0.15301538
116	0x3f4dd548	0.80403566
117	0x3f1918c7	0.5980343
118	0x3f51ee46	0.820042
119	0x3e6e2337	0.23255621
120	0x3f1c9fb2	0.61181176
121	0x3e66e6c8	0.22548974
122	0x3e69dbec	0.228378
123	0xbe33fc98	-0.17576826
124	0x3f1010fc	0.56275916
125	0xbf245b58	-0.6420188
126	0x3f1fe5b1	0.62459856
127	0x3f2ec2cd	0.6826599
128	0x3fcab356	1.5835979
129	0x3f270641	0.6524392
130	0x3f5cb40c	0.8621223
131	0x3f6282c2	0.8848077
132	0x3e943a6a	0.28950816
133	0xbeb73906	-0.35785693
134	0x3e803d10	0.25046587
135	0x3e6f4f11	0.23370005
136	0xbe01b603	-0.12667088
137	0x3d192c7e	0.037395947
138	0x3cbdfd9a	0.023192216
139	0x3ee10854	0.43951666
140	0x3f126fa4	0.572016
141	0xbed209f5	-0.41023222
142	0xbe8e9f18	-0.27855754
143	0x3dded153	0.10879769
144	0xbf371207	-0.7151188
145	0x3f0c57c9	0.5482145
146	0x3ef23905	0.47309127
147	0x3f8f1908	1.1179514
148	0x3d46c23e	0.048525088
149	0x3f80a80b	1.0051283
150	0x3de77f8b	0.11303624
151	0xbd6a6a73	-0.057230424
152	0xba95a682	-0.0011417421
153	0x3d85ba09	0.06529624
154	0xbc831705	-0.016002188
155	0x3e3a042a	0.18165651
156	0xbdbd32e1	-0.0923822
157	0xbd9873f3	-0.074439906
158	0xbf08afa0	-0.5339298
159	0x3d367cde	0.044552676
160	0x3effcbc8	0.4996016
161	0xbe7183b4	-0.23585397
162	0xba8f82d4	-0.0010949024
163	0xbe387c96	-0.18016276
164	0x3f3d213c	0.73878837
165	0x3e8a0991	0.26960424
166	0x3debf3b8	0.11521095
167	0x3f4c10d2	0.79713166
168	0xbf629573	-0.8850929
169	0xbe616877	-0.22012506
170	0x3c93094d	0.01794877
171	0x3ea15a7a	0.3151434
172	0xbe17ec30	-0.14836192
173	0x3d94b5d4	0.072612435
174	0xbed002c7	-0.4062712
175	0x3d955930	0.07292402
176	0xbc5d11a0	-0.013492972
177	0xbe415885	-0.18881424
178	0x3f2bd422	0.67120564
179	0x3eab5039	0.33459643
180	0xbc63d2fa	-0.013905281
181	0xbd1b3c10	-0.037899077
182	0xbd75d891	-0.060020987
183	0x3e3185fb	0.17336266
184	0xbd92f68b	-0.071759306
185	0xbf02462c	-0.50888324
186	0x3f7367d6	0.95080316
187	0xbebe7fc6	-0.37206858
188	0x3d945001	0.07241822
189	0xbde3c455	-0.11121432
190	0x3f40fcb8	0.7538562
191	0xbec67b88	-0.38766122
192	0xbd3cd1d6	-0.046098553
193	0x3e6feb45	0.23429592
194	0x3da7b63b	0.081890546
195	0xbe456747	-0.19277678
196	0x3e83af84	0.25719845
197	0x3e28aba5	0.16471727
198	0x3f19e112	0.60109055
199	0x3f29a957	0.6627402

sequential/dense_2/MatMul f4 [8, 10]
0	0xbf84373f	-1.032936
1	0xbeb28ee3	-0.3487464
2	0x3f270c88	0.65253496
3	0x3dd41b27	0.103567414
4	0x3f46a9a7	0.7760262
5	0x3e68f121	0.22748233
6	0x3ec82bf4	0.39096034
7	0x3da12159	0.07867689
8	0xbef5c66c	-0.48002946
9	0x3eeadac0	0.45870018
10	0x3e15aa89	0.14615835
11	0x3f4fbea9	0.811503
12	0xbf5b4e4d	-0.8566635
13	0xbf800329	-1.0000964
14	0x3f25d512	0.64778244
15	0xbb93a8c3	-0.004506202
16	0x3efe19ab	0.49628958
17	0x3f9b91b7	1.2153844
18	0x3f4e7329	0.8064447
19	0x3f817085	1.0112463
20	0x3f81d938	1.0144415
21	0x3e10eb71	0.14152314
22	0xbe89b499	-0.26895598
23	0x3fc8ff86	1.570298
24	0x3f0df372	0.55449593
25	0xbf3e8a3e	-0.7442969
26	0x3d6c90be	0.057755224
27	0xbf117cae	-0.5683087
28	0xbf2a1843	-0.6644327
29	0xbf2889bf	-0.65835184
30	0xbf04c05a	-0.51856005
31	0x3db8c0fb	0.09021183
32	0xbeae43c2	-0.3403607
33	0xbfb743e0	-1.4317589
34	0x3e90638a	0.28200942
35	0x3f9c3b06	1.2205513
36	0xc018bba7	-2.3864534
37	0xbf3b7e11	-0.7323924
38	0xbfc94bc5	-1.5726248
39	0xbf8b4928	-1.08817
40	0xc00d3ca4	-2.2068262
41	0xbfb32700	-1.3996277
42	0xbffe6cf0	-1.9876995
43	0xbfe5a2aa	-1.7940266
44	0xbfc2435c	-1.5176806
45	0xbfa6475a	-1.2990525
46	0xbfdf6c5c	-1.7454944
47	0xbee7c15a	-0.45264703
48	0xbf32ab98	-0.6979308
49	0xbf094931	-0.53627306
50	0xbec3afde	-0.38220114
51	0x3edd83c0	0.4326458
52	0x3ebd4db7	0.36973354
53	0xbe51af13	-0.20476942
54	0xbfabfca6	-1.3436477
55	0xbf50da7c	-0.8158338
56	0x3f8f4f79	1.1196128
57	0xbfddeadd	-1.73373
58	0xbf65c123	-0.8974783
59	0xc030b5f2	-2.761105
60	0xbf2b1881	-0.66834265
61	0xbf1d68e4	-0.61488175
62	0x3f3b10ea	0.73072684
63	0xbecc2786	-0.39873904
64	0xbf8c6336	-1.0967777
65	0x3e683996	0.22678217
66	0x3e839ecc	0.2570709
67	0x3e04724f	0.1293423
68	0x3f60c607	0.87802166
69	0xbfa840f0	-1.3144817
70	0x3ef32bb6	0.47494286
71	0xbfb2cf95	-1.3969599
72	0x3ea31006	0.31848162
73	0xbf7358ef	-0.95057577
74	0xbebce3a6	-0.36892432
75	0x3f4049a2	0.75112355
76	0x3e617e50	0.2202084
77	0x3e925512	0.28580528
78	0x3efde587	0.49589178
79	0xbe994a73	-0.29939613
